lunar_lander_dqn.pth (torch, 75841 bytes, 6 tensors)

layer1.weight f4 [128, 8]
0.049211286 0.38216725 -0.4607601 1.0809284 0.21172778 0.1845902 0.17281857 0.44038987
-0.08774885 -0.08665874 1.1147412 -0.49398747 -0.066957094 0.24332257 0.232244 -0.09129426
0.435077 -0.05696489 -0.21370105 0.08147142 -0.111896515 -0.14729325 -0.17569953 0.34608603
-0.42417032 -0.26212955 -0.057212874 -0.20608641 -0.04266279 -0.40245485 0.0021252623 -0.34396517
0.21912166 0.10058248 -0.21026078 0.38929176 0.05367779 0.4326373 0.23223259 -0.05605128
-0.15018703 -0.038289968 0.38816202 -0.2885673 -0.13340122 -0.28916544 0.122543395 0.1936175
0.11882209 0.0016181874 -0.6414999 -0.91425616 -0.15620093 0.55657864 -0.045155354 0.12972578
-0.24191129 -0.15409508 0.0912531 -0.24780689 -0.03256353 -0.38398907 -0.23273744 -0.043517005
-0.5388048 0.06419666 0.11290457 -0.22304396 -0.11763143 -0.28868955 0.33893168 0.3681343
0.017359849 0.033335872 -0.6789534 -0.85001475 -0.21876314 0.06080899 0.066925064 0.25051194
-0.36428833 -0.26023713 -0.10711633 -0.32257667 0.2393905 0.16603282 0.46196225 -0.24355856
-0.13345724 0.11534962 0.009285762 -0.2960313 0.290769 0.4601915 0.011512462 0.06545388
0.32175815 -0.12379505 -0.07621997 -0.96600926 -0.11778988 -0.057777528 0.012946237 -0.20041083
-0.7326206 0.07239845 -0.51626205 -0.20114796 -0.23588942 -0.4731379 0.30123323 -0.040365774
-0.24922708 -0.13316464 0.008298057 -0.72800416 -0.18544476 -0.24588442 -0.56660306 0.1800967
0.22882277 0.049182713 -0.18652827 -0.15304834 -0.14189017 -0.4366136 -0.6737844 0.051292967
0.10008927 -0.10098393 -0.30653712 0.18380417 -1.0425746 -0.5370169 -0.2762054 0.17232136
-0.48505408 -0.15719156 0.06814923 -0.14402415 -0.09648541 -0.465823 0.31864777 -0.072961174
-0.16134422 0.14731035 0.045623504 0.46179706 0.25448662 -0.68426424 0.11515948 -0.16263261
0.01710904 -0.11863758 0.4414702 -0.1574086 0.19947006 0.36773357 0.22750737 -0.074671015
-0.2091323 0.12269355 0.6358967 -0.7531459 0.30816436 -0.04358271 0.027926844 0.3889265
-0.91037774 -0.079552196 -0.5263112 0.06902686 0.40348586 0.06922394 0.13956597 -0.22165357
-0.1629351 0.1717486 0.72621024 -1.1347831 0.0077359695 0.49090385 0.14039236 -0.9327194
0.08432668 0.2113092 0.7568214 -0.26855868 -0.43070146 0.017336443 0.13420957 -0.53137124
0.11141904 0.34555975 -0.06815795 -0.3310307 0.22766322 -0.14608309 0.25809526 0.33087486
-0.045334045 -0.19607466 -0.04850777 -0.33984512 -0.044394467 -0.53367466 -0.52182555 0.34744114
-0.000600666 0.06832931 0.11327513 0.52628285 -0.5994703 -0.43993217 -0.063083924 0.43544546
0.15962473 -0.11220512 -0.37216243 0.09657157 -0.98007154 -0.50550777 -0.50662035 0.18950608
-0.21641721 0.32211164 -0.120793894 0.022994585 0.065603815 -0.52538884 -0.73613423 0.32481438
0.15377676 0.1531595 0.044951003 0.235951 -0.10252145 -0.41674954 -0.23069634 -0.4026365
0.10503345 0.019677212 -0.14448312 -0.5693894 0.53119326 -0.6979156 -0.26266244 0.31652334
-0.2934269 0.3196307 -0.18324813 -0.67125446 0.43951526 -0.42342988 -0.2648814 -0.80925107
00000000: c691 493d 6dab c33e bfe8 ebbe dd5b 8a3f
00000010: 2bcf 583e 3705 3d3e 5af7 303e c87a e13e
00000020: abb5 b3bd 237a b1bd d7af 8e3f edeb fcbe
00000030: cd20 89bd 8d29 793e 5fd1 6d3e 7cf8 babd
00000040: 6ac2 de3e 0454 69bd 73d4 5abe 7dda a63d
00000050: 002a e5bd 0bd4 16be 94ea 33be 3032 b13e
00000060: da2c d9be d835 86be 0c58 6abd 5108 53be
00000070: 2dbf 2ebd 900e cebe fc47 0b3b 341c b0be
00000080: 6e61 603e 30fe cd3d 9a4e 57be 4051 c73e
00000090: 3edd 5b3d a382 dd3e 61ce 6d3e 0796 65bd
000000a0: a1ca 19be f1d5 1cbd 2cbd c63e 18bf 93be
000000b0: 549a 08be 7e0d 94be 08f8 fa3d aa43 463e
000000c0: ff58 f33d 5c19 d43a 5639 24bf b10c 6abf
000000d0: 23f3 1fbe f07b 0e3f d2f4 38bd d6d6 043e
000000e0: 98b7 77be 1acb 1dbe e8e2 ba3d 17c1 7dbe
000000f0: 5661 05bd 379a c4be b952 6ebe e33e 32bd
00000100: 1def 09bf 8a79 833d 833a e73d a365 64be
00000110: bfe8 f0bd 1ecf 93be 7488 ad3e 197c bc3e
00000120: 3e36 8e3c 328b 083d e4cf 2dbf 919a 59bf
00000130: 7203 60be d912 793d 0210 893d 1a43 803e
00000140: 0084 babe cd3d 85be ce5f dbbd c528 a5be
00000150: c922 753e 8204 2a3e 5186 ec3e 6a67 79be
00000160: 04a9 08be 6c3c ec3d 4f23 183c 6a91 97be
00000170: addf 943e 389e eb3e c49e 3c3c af0c 863d
00000180: 7cbd a43e 4288 fdbd 3719 9cbd 624c 77bf
00000190: d23b f1bd 21a8 6cbd 741c 543c 7f38 4dbe
000001a0: 068d 3bbf a345 943d c029 04bf bbf9 4dbe
000001b0: ff8c 71be 213f f2be 3e3b 9a3e 9556 25bd
000001c0: 6235 7fbe 505c 08be 93f4 073c 7b5e 3abf
000001d0: 3be5 3dbe 20c9 7bbe e60c 11bf 456b 383e
000001e0: 8450 6a3e d073 493d 4401 3fbe b4b8 1cbe
000001f0: a84b 11be d18b dfbe 227d 2cbf 9318 523d
00000200: 9afb cc3d aad0 cebd 6ff2 9cbe 2937 3c3e
00000210: 1673 85bf f179 09bf cb6a 8dbe 0375 303e
00000220: 0259 f8be d3f6 20be d391 8b3d 117b 13be
00000230: 259a c5bd 5a80 eebe cd25 a33e ab6c 95bd
00000240: 6b37 25be 86d8 163e b6df 3a3d aa70 ec3e
00000250: 124c 823e f12b 2fbf bcd8 eb3d 2a89 26be
00000260: 4228 8c3c 42f8 f2bd 6208 e23e b82f 21be
00000270: e141 4c3e 9347 bc3e b1f7 683e 1eed 98bd
00000280: c726 56be c246 fb3d 20ca 223f 2bce 40bf
00000290: b8c7 9d3e c983 32bd d6c6 e43c 6021 c73e
000002a0: 840e 69bf 43ec a2bd 55bc 06bf f45d 8d3d
000002b0: b395 ce3e 48c5 8d3d 62ea 0e3e 27f9 62be
000002c0: 75d8 26be ddde 2f3e eae8 393f 9340 91bf
000002d0: 047e fd3b c057 fb3e 04c3 0f3e b3c6 6ebf
000002e0: 77b3 ac3d 7061 583e 0cbf 413f 8680 89be
000002f0: e784 dcbe 2805 8e3c 3c6e 093e f207 08bf
00000300: aa2f e43d 35ed b03e 6596 8bbd db7c a9be
00000310: 8c20 693e ce96 15be 1025 843e 6e68 a93e
00000320: 31b0 39bd ccc7 48be 15b0 46bd 2e00 aebe
00000330: f9d6 35bd e79e 08bf 5c96 05bf cee3 b13e
00000340: 0376 1dba 3df0 8b3d cbfc e73d 79ba 063f
00000350: e376 19bf ca3e e1be 2532 81bd b5f2 de3e
00000360: aa74 233e cccb e5bd 138c bebe 51c7 c53d
00000370: f8e5 7abf f568 01bf dfb1 01bf e20d 423e
00000380: 799c 5dbe d1eb a43e ca62 f7bd 245f bc3c
00000390: 4b5b 863d e27f 06bf 4b73 3cbf 124e a63e
000003a0: a877 1d3e d8d5 1c3e 8b1e 383d 249d 713e
000003b0: c4f6 d1bd 3260 d5be a93b 6cbe 5f26 cebe
000003c0: c71b d73d 1b32 a13c 62f3 13be 81c3 11bf
000003d0: 48fc 073f 99aa 32bf b17b 86be 590f a23e
000003e0: 0d3c 96be a3a6 a33e 66a5 3bbe 55d7 2bbf
000003f0: 2508 e13e cdcb d8be 899e 87be 142b 4fbf

layer1.bias f4 [128]
0.5657156 0.12262397 0.14021231 -0.44481605 0.21152934 0.14989616 0.40574273 -0.4093316
-0.084989235 -0.023666132 0.027405515 0.3892525 0.11794188 -0.15372606 0.14770064 0.056621354
-0.12722178 0.28205493 0.055290416 0.22067095 -0.09189853 0.05051151 0.1076276 0.13763158
0.2442323 -0.010188929 0.33514726 -0.12425451 -0.36031002 -0.2786861 0.39709365 0.031936757
0.2081928 -0.13531183 0.12087267 -0.1343926 -0.16983677 0.15443385 0.5417804 0.3611947
-0.32103595 -0.045534693 -0.13346107 0.20284219 0.5728455 0.4765789 0.47117746 0.24899887
0.18570769 0.2329293 -0.40139863 0.22002056 0.019823695 -0.0062033297 -0.27191925 0.09507392
0.24520752 -0.13244137 0.0047580474 -0.1423535 0.10526219 0.39715365 0.4194523 0.29505128
0.23494112 0.0012880545 0.20092031 0.48000553 -0.13124132 0.37118092 0.30864275 0.0770645
0.0019249612 0.551632 0.19948296 0.38791758 -0.039544065 0.37038854 -0.30746543 0.43664065
-0.27876934 0.2304103 0.26555178 0.087845616 0.03454168 0.25450724 0.060751766 -0.28100252
-0.24402171 0.5290675 -0.06379997 0.023681711 -0.0018453619 0.37217385 0.30075 0.0116430605
-0.16652961 -0.1491981 0.10919411 -0.06731366 0.39746833 -0.10347435 0.19946153 0.4827935
0.0665427 0.29489687 -0.3479422 0.33951318 0.09262049 -0.1323558 0.3611878 0.04919124
0.014377547 0.44382396 -0.058231015 0.015481393 -0.0015484227 -0.038875353 -0.0017140482 -0.37751564
0.2238679 -0.19334626 0.011197122 -0.26549932 0.4019091 0.19468997 -0.082045004 0.37517634
00000000: bdd2 103f 4722 fb3d d193 0f3e eebe e3be
00000010: 269b 583e 617e 193e 83bd cf3e e993 d1be
00000020: d60e aebd 7adf c1bc 8881 e03c 1b4c c73e
00000030: 838b f13d 5d6a 1dbe d63e 173e cbeb 673d
00000040: 6d46 02be 8169 903e 3478 623d 91f7 613e
00000050: 4c35 bcbd 28e5 4e3d dc6b dc3d 4bef 0c3e
00000060: 0818 7a3e 77ef 26bc 6c98 ab3e 2679 febd
00000070: 8e7a b8be f2af 8ebe dc4f cb3e 1ed0 023d
00000080: 7e30 553e 2f8f 0abe 178c f73d 379e 09be
00000090: b1e9 2dbe e823 1e3e 1fb2 0a3f 83ee b83e
000000a0: d35e a4be 9682 3abd 05aa 08be ddb5 4f3e
000000b0: 01a6 123f 2602 f43e 2c3e f13e 8ff9 7e3e
000000c0: 282a 3e3e 0585 6e3e 1f84 cdbe 124d 613e
000000d0: 4d65 a23c 4d45 cbbb 0039 8bbe 1eb6 c23d
000000e0: ae17 7b3e b69e 07be 65e9 9b3b 1ec5 11be
000000f0: b493 d73d b957 cb3e 74c2 d63e f610 973e
00000100: 6894 703e f0d3 a83a 0ebe 4d3e 49c3 f53e
00000110: 2064 06be 6d0b be3e 6c06 9e3e fed3 9d3d
00000120: fb4e fc3a c137 0d3f 4345 4c3e 229d c63e
00000130: f5f8 21bd 91a3 bd3e 1c6c 9dbe 5d8f df3e
00000140: dbba 8ebe adf0 6b3e 67f6 873e 67e8 b33d
00000150: 947b 0d3d c64e 823e d8d6 783d 90df 8fbe
00000160: d4e0 79be f870 073f 8fa9 82bd 2600 c23c
00000170: 12e0 f1ba 928d be3e e7fb 993e 89c2 3e3c
00000180: bd86 2abe 63c7 18be 29a1 df3d bfdb 89bd
00000190: f880 cb3e 5cea d3bd a53f 4c3e b630 f73e
000001a0: 8a47 883d b9fc 963e 7b25 b2be acd4 ad3e
000001b0: d0af bd3d 4788 07be 9bed b83e c17c 493d
000001c0: ce8f 6b3c e53c e33e a583 6ebd aba5 7d3c
000001d0: 72f4 caba c33b 1fbd eaa9 e0ba bb49 c1be
000001e0: a03d 653e 90fc 45be 2274 373c 87ef 87be
000001f0: 08c7 cd3e cf5c 473e 3607 a8bd 1d17 c03e

layer2.weight f4 [128, 128]
-0.029544257 0.5640264 -0.08111359 0.052352615 0.00037789595 0.2004477 0.104928896 -0.0041209715
0.0042703133 0.2437931 0.09073573 0.2063965 0.14154947 0.24647698 0.358132 0.02548863
0.07661291 0.08499098 -0.120143935 0.25678957 0.76097226 -0.29334384 0.35085383 0.13870552
0.13205788 0.09514291 -0.032036938 0.28049707 0.084015585 -0.0016639829 0.13379164 -0.016380435
0.18029569 -0.08596797 -0.046097748 0.5771955 0.07796179 0.23862675 0.017684316 0.14005674
0.040101875 -0.21877116 0.3692577 0.25893873 0.057144526 0.06763322 -0.08707588 0.185876
0.08479206 0.050143145 0.057062883 0.27319688 0.2795902 0.22279353 0.27536717 -0.17904305
0.014634029 0.2973149 0.102236 0.124853864 0.08625009 0.09735389 0.05409145 0.18234828
0.36432302 0.027372925 0.35528246 -0.05841901 0.49635187 0.17838985 0.07413518 0.11882274
0.6731733 0.057150826 0.22628355 0.18200284 0.43407977 -0.013263749 0.16743033 0.106652685
-0.026339479 0.35890383 0.37463942 0.04996129 0.14359045 0.10894133 0.022168228 -0.039331313
-0.04815008 -0.023802282 0.36153665 0.5973264 0.025187353 0.19299138 0.13937613 0.26093838
-0.17797486 -0.042947397 0.3228274 0.07301422 -0.03530377 0.41377085 -0.05155636 0.21646225
0.09894073 0.24244528 -0.07239493 -0.11095915 -0.05175952 0.13727644 -0.020941678 0.1341879
0.1064583 0.14994001 0.21102884 -0.12957068 -0.21860667 0.041010536 0.17472574 0.063310646
0.0808821 0.1088789 -0.3279949 -0.15414575 0.033257138 0.10518126 0.0144089265 -0.14572088
-0.029616332 -0.3624166 0.32443574 0.2612119 0.22781353 0.3097078 0.27023703 0.17767857
0.17146051 -0.27379674 0.42955187 0.16328815 0.029863453 0.26471612 0.5066002 0.29664344
-0.47723654 0.18318768 0.08363395 0.27139893 -0.37581992 0.5250446 0.009677596 -0.030331131
-0.031013554 0.49085668 0.16421269 -0.6164028 0.30412602 0.21885012 0.07117125 0.056364086
0.3233182 0.19074398 0.082920246 0.37689605 0.17506295 -0.021539109 -0.06620101 0.12914018
0.1804079 0.34176752 -0.41145512 -0.30288616 -0.0008021897 0.11735826 -0.095658354 0.05934854
-0.1244444 0.09377832 0.3761219 0.09645201 -0.25368834 -0.21411207 -0.44644326 0.08304345
0.40800518 -0.21357721 0.3700537 0.22324851 0.25913396 -0.05106848 0.01792239 -0.03181509
-0.2423424 -0.19480884 0.20940258 0.024189271 -0.6862764 0.035453316 0.05313782 -0.23543362
-0.36351183 0.03664741 0.11731158 -0.08042651 -0.34599307 0.4294751 0.30404025 0.023314161
0.084366776 0.1364042 0.2120058 0.27969277 -0.40977553 0.24760675 0.2913304 -0.24969602
0.28608707 0.5077982 -0.5096759 -0.56824887 0.26765865 -0.11727822 -0.050803766 -0.08386052
0.29110023 0.4009111 0.33679146 0.52813566 0.1110997 0.4212842 0.25095367 -0.08758584
0.42791232 -0.052511647 0.25906378 0.09742027 0.19505608 0.4191067 0.16588762 -0.09860671
0.33690262 -0.03850848 -0.22321668 0.2717754 0.29459402 0.31363595 -0.35496676 0.16033939
0.17759214 0.100724734 -0.2872678 0.40107027 0.45019498 0.31729364 0.24417752 0.06334905
00000000: cc06 f2bc 0964 103f e21e a6bd b26f 563d
00000010: 5620 c639 2942 4d3e f6e4 d63d 3709 87bb
00000020: fced 8b3b e6a4 793e a8d3 b93d 9b59 533e
00000030: 58f2 103e 7664 7c3e 145d b73e 88cd d03c
00000040: 3be7 9c3d c00f ae3d 060e f6bd ec79 833e
00000050: 14cf 423f 2a31 96be 1da3 b33e d208 0e3e
00000060: 2e3a 073e 49da c23d 2a39 03bd 509d 8f3e
00000070: 5d10 ac3d 001a daba ad00 093e 4330 86bc
00000080: 6f9f 383e fa0f b0bd fed0 3cbd 16c3 133f
00000090: 6eaa 9f3d 925a 743e b3de 903c 096b 0f3e
000000a0: dd41 243d 8c05 60be 580f bd3e 9e93 843e
000000b0: 6110 6a3d 4983 8a3d d754 b2bd 4756 3e3e
000000c0: 76a7 ad3d e662 4d3d c5ba 693d 76e0 8b3e
000000d0: 7226 8f3e fd23 643e edfc 8c3e 1057 37be
000000e0: 91c3 6f3c a939 983e 1c61 d13d 62b3 ff3d
000000f0: e3a3 b03d 7a61 c73d ff8e 5d3d 82b9 3a3e
00000100: 8c88 ba3e 2f3d e03c 95e7 b53e c648 6fbd
00000110: d521 fe3e d4ab 363e 2fd4 973d 5659 f33d
00000120: 1655 2c3f fc16 6a3d e0b6 673e f45e 3a3e
00000130: b43f de3e 3250 59bc db72 2b3e b96c da3d
00000140: e4c5 d7bc 3ec2 b73e bdd0 bf3e 36a4 4c3d
00000150: 6009 133e a21c df3d 259a b53c df19 21bd
00000160: 0539 45bd 01fd c2bc 551b b93e 62ea 183f
00000170: b555 ce3c 889f 453e 9eb8 0e3e b799 853e
00000180: 0b3f 36be 9ce9 2fbd a249 a53e 7b88 953d
00000190: b09a 10bd c6d9 d33e c32c 53bd 48a8 5d3e
000001a0: 70a1 ca3d 9343 783e cb43 94bd 8d3e e3bd
000001b0: ca01 54bd 3292 0c3e e28d abbc 8e68 093e
000001c0: cf06 da3d e089 193e f217 583e 2dae 04be
000001d0: 6dda 5fbe aafa 273d 4eeb 323e 03a9 813d
000001e0: 84a5 a53d e7fb de3d f3ee a7be 62d8 1dbe
000001f0: a338 083d 4669 d73d 6b13 6c3c db37 15be
00000200: f39d f2bc ab8e b9be 711c a63e 91bd 853e
00000210: f347 693e 0592 9e3e 825c 8a3e 5ff1 353e
00000220: 5893 2f3e 162f 8cbe 39ee db3e 0235 273e
00000230: 33a4 f43c df88 873e 8db0 013f a6e1 973e
00000240: 5958 f4be 8d95 3b3e 4748 ab3d cdf4 8a3e
00000250: 786b c0be 5369 063f c88e 1e3c fe78 f8bc
00000260: 2310 febc 9151 fb3e 5f27 283e 93cc 1dbf
00000270: 68b6 9b3e 3f1a 603e 3bc2 913d 07de 663d
00000280: f789 a53e 6452 433e 17d2 a93d 85f8 c03e
00000290: b443 333e c972 b0bc 6594 87bd 533d 043e
000002a0: d9bc 383e 27fc ae3e 3faa d2be e513 9bbe
000002b0: 0a4a 52ba 8759 f03d 87e8 c3bd 7417 733d
000002c0: b5dc febd d90e c03d 0d93 c03e a288 c53d
000002d0: 70e3 81be 3240 5bbe 3694 e4be af12 aa3d
000002e0: 0ee6 d03e fcb3 5abe ae77 bd3e 429b 643e
000002f0: 35ad 843e 2f2d 51bd fad1 923c 8a50 02bd
00000300: 9b28 78be f87b 47be a16d 563e 9428 c63c
00000310: cfaf 2fbf 7f37 113d 0ba7 593d 8315 71be
00000320: 391e babe 981b 163d 0e41 f03d a7b6 a4bd
00000330: 0126 b1be 29e4 db3e 2aab 9b3e 57fd be3c
00000340: 7dc8 ac3d 8bad 0b3e 0c18 593e e433 8f3e
00000350: 19ce d1be a08c 7d3e 4229 953e 50b0 7fbe
00000360: 017a 923e 10ff 013f 1f7a 02bf c278 11bf
00000370: 8e0a 893e 902f f0bd 9c17 50bd 10bf abbd
00000380: 170b 953e 3844 cd3e ee6f ac3e e633 073f
00000390: 3d88 e33d 90b2 d73e 007d 803e 3460 b3bd
000003a0: 5317 db3e 7416 57bd 02a4 843e 4784 c73d
000003b0: c8bc 473e 2795 d63e 72de 293e 51f2 c9bd
000003c0: 807e ac3e 11bb 1dbd ea92 64be 2526 8b3e
000003d0: 07d5 963e e494 a03e 34be b5be 0230 243e
000003e0: b7da 353e c548 ce3d c414 93be 1559 cd3e
000003f0: f57f e63e 5074 a23e ac09 7a3e 26bd 813d

layer2.bias f4 [128]
0.010915261 0.043236073 0.17839883 0.096732445 -0.039263334 0.06447007 -0.017255582 -0.08397088
0.03732408 -0.024399497 -0.114413016 0.12776457 0.07839327 0.000578626 0.085654974 0.004303156
0.15930593 -0.053547807 -0.17154397 -0.092740715 0.19404505 0.054738507 0.16216011 -0.0073661413
-0.1590437 0.24064147 0.13373098 0.1880616 0.14021234 0.061672464 0.0045411624 -0.070066586
-0.057579707 0.047722343 0.05068414 0.12140928 0.17509842 0.12029806 0.08012751 0.06688763
-0.031619724 0.062024463 -0.075619996 0.016495598 -0.013603513 0.040063247 0.0011862683 -0.023068545
-0.07854138 -0.049431495 -0.12608905 -0.038429487 0.064743266 0.14595711 0.042434417 0.053546105
-0.06921474 -0.045144092 0.022346005 0.2610196 -0.02357913 0.18025942 -0.062540226 0.14981143
-0.086359896 -0.06196318 -0.06723705 0.049948476 0.0637315 0.15292068 0.25600967 0.1705431
-0.023278492 0.035233866 -0.012645688 0.076842695 -0.047620125 0.0007565845 0.17475998 0.0244535
0.12989396 0.009637175 0.0011260038 0.09840065 0.26729608 0.16705386 0.032371257 -0.018631676
0.015162761 -0.04543866 0.009316692 0.051981755 0.025837546 -0.08624369 0.17064506 0.051355593
0.039073657 -0.048660014 -0.022267116 -0.047019746 0.19902523 -0.042297885 0.19907367 0.19112296
-0.0041096914 0.12819885 0.010458396 -0.02695965 0.0022100061 0.10616061 0.05489377 0.08838403
0.011324008 0.075736225 0.0060948636 -0.0011290766 0.16640323 -0.029542385 0.15279832 0.21647033
-0.11649616 0.046421748 -0.10831566 -0.07016112 0.06563034 0.027796617 0.058378007 0.23833911
00000000: ecd5 323c 4f18 313d 2fae 363e a91b c63d
00000010: 97d2 20bd e208 843d 945b 8dbc edf8 abbd
00000020: 22e1 183d 74e1 c7bc 5f51 eabd b7d4 023e
00000030: a78c a03d efae 173a e06b af3d 7d01 8d3b
00000040: 1821 233e f254 5bbd 39a9 2fbe d8ee bdbd
00000050: bfb3 463e 7c35 603d 4d0d 263e ac5f f1bb
00000060: 5adc 22be b86a 763e c6f0 083e 3893 403e
00000070: d393 0f3e 449c 7c3d 08ce 943b 127f 8fbd
00000080: b3d8 6bbd 8178 433d 2c9a 4f3d 6ea5 f83d
00000090: 004d 333e d45e f63d e419 a43d 62fc 883d
000000a0: af83 01bd 5d0d 7e3d a8de 9abd c721 873c
000000b0: 45e1 5ebc 5c19 243d 8f7c 9b3a 3ffa bcbc
000000c0: 4eda a0bd ae78 4abd 7d1d 01be 3d68 1dbd
000000d0: 1e98 843d c875 153e b6cf 2d3d 2953 5b3d
000000e0: 75c0 8dbd 03e9 38bd f80e b73c 5ca4 853e
000000f0: 0529 c1bc ed95 383e 1715 80bd 2b68 193e
00000100: 75dd b0bd 1acd 7dbd 94b3 89bd c696 4c3d
00000110: a985 823d 3d97 1c3e b313 833e daa2 2e3e
00000120: 89b2 bebc 6351 103d dc2f 4fbc b45f 9d3d
00000130: 520d 43bd 8755 463a 48f4 323e b552 c83c
00000140: ec02 053e 3ee5 1d3c 6b96 933a 4886 c93d
00000150: 08db 883e 2b10 2b3e b997 043d 75a1 98bc
00000160: 3b6d 783c e31d 3abd 0aa5 183c d2ea 543d
00000170: 43a9 d33c 88a0 b0bd 94bd 2e3e 3e5a 523d
00000180: b30b 203d b94f 47bd 8769 b6bc c797 40bd
00000190: 45cd 4b3e 8c40 2dbd f8d9 4b3e bdb5 433e
000001a0: 97aa 86bb 8f46 033e b159 2b3c 7cda dcbc
000001b0: c0d5 103b bc6a d93d 4ad8 603d b002 b53d
000001c0: 5588 393c 981b 9b3d 6cb7 c73b 86fd 93ba
000001d0: 9c65 2a3e df02 f2bc 2a77 1c3e 66aa 5d3e
000001e0: 8a95 eebd bb24 3e3d 9ad4 ddbd a2b0 8fbd
000001f0: 3369 863d bbb5 e33c c71d 6f3d 2b0f 743e

layer3.weight f4 [4, 128]
-0.02062438 -0.41446027 0.35133547 0.5845771 -0.34732166 0.5716161 0.03348626 -0.37968108
-0.40803263 0.2324054 -0.20499068 0.34583536 -0.21945846 -0.33345735 0.5628488 -0.4376935
-0.3107011 -0.4147946 -0.15504833 -0.45973662 0.2923435 -0.3174587 -0.34802765 -0.45504
0.6563489 0.30083522 0.5165953 0.22588493 0.50049645 -0.4122402 -0.42667252 -0.43372646
-0.36469656 -0.43144828 -0.3944448 0.35547546 0.88673866 0.54942614 -0.42997134 -0.5031689
-0.3892088 0.4371265 -0.336426 -0.29077196 -0.39404002 -0.32803336 -0.27054307 0.01421452
0.05129401 -0.04486987 -0.2873991 0.019900475 -0.30872956 0.3313471 -0.26776809 -0.23675856
-0.37933454 -0.5332944 -0.44419715 1.7523454 -0.37107375 0.44552302 -0.32725337 1.8531135
-0.23943062 -0.3993239 0.052758157 -0.61232036 0.25605994 0.42675194 0.36554778 -0.35748735
-0.36325076 -0.48684308 -0.43513528 0.1080107 0.040230382 0.61311126 -0.44208348 -0.37531975
0.31311285 -0.4053973 -0.34245202 -0.14747776 0.44843343 0.56477463 -0.29240885 -0.38337445
0.65603876 -0.33255056 -0.22721799 -0.41032055 -0.32734957 -0.51358664 0.37557626 -0.44440895
1.08549 -0.2197618 -0.38375908 -0.57579195 0.010606421 -0.44067824 0.34667265 0.9942585
-0.0042328415 0.1505698 -0.22185639 -0.30276707 0.010934506 -0.32890895 -0.13095975 1.5249617
-0.3384323 0.20806022 -0.22551027 -0.3673435 0.318088 -0.450179 0.44549412 0.46224684
-0.4637781 1.0628401 -0.27989098 -0.33500046 -0.3079664 -0.37474018 0.7464435 0.3548279
0.011944671 -0.35160297 0.20331301 0.5002916 -0.3809311 0.55760425 -0.00081399473 -0.37610403
-0.36982042 0.67036676 -0.25237656 0.41028944 -0.12785545 -0.3633033 0.4558731 -0.5457362
-0.4613026 -0.47307476 -0.24265961 -0.41646573 0.24180721 -0.030828938 0.25624534 -0.31243694
0.58217037 0.43238378 0.49409002 0.28987193 0.41126466 -0.37404412 -0.21133342 -0.4056674
-0.3356551 -0.40768388 -0.49294904 0.511994 0.7336924 0.45645052 -0.40878084 -0.37360072
-0.3279695 0.47298142 -0.36432794 -0.29336762 -0.33981523 -0.41356698 -0.42333555 -0.03396734
0.05895127 0.000699071 0.020653516 0.0483417 -0.34248027 -0.10174442 -0.09037596 -0.2578112
-0.37872598 -0.7777027 -0.41871646 1.3434712 -0.24989009 0.34661472 -0.4107762 0.6721706
-0.23211662 -0.31999305 0.04402566 -0.27507177 0.48967648 0.57771266 0.20272592 -0.53707534
-0.23192357 -0.382669 -0.3275386 0.39384726 -0.0698859 0.6801308 -0.37700918 -0.43762285
0.28599063 -0.4151986 -0.32096052 -0.116639905 0.40801525 0.6233454 -0.4172393 -0.31616998
0.4798615 -0.22183053 -0.1810764 -0.36627474 -0.41889033 -0.4313886 0.5234721 -0.47048253
0.20721717 -0.4361125 -0.39639127 -0.35542515 -0.601401 -0.36654186 0.20355614 0.95915407
0.059686888 0.22094464 -0.20735674 -0.39400253 -0.028809605 -0.5631845 -0.094174206 1.0618175
-0.37873042 0.11929208 -0.22901344 -0.47352558 0.34492067 -0.4532166 0.45958346 0.45231932
-0.4632701 0.25035083 -0.19196416 0.018383618 -0.21542847 -0.47193944 0.73869216 0.5623357
00000000: 76f4 a8bc 2334 d4be 3ee2 b33e d8a6 153f
00000010: 25d4 b1be 6f55 123f e328 093d 8f65 c2be
00000020: a7e9 d0be aefb 6d3e 14e9 51be 5511 b13e
00000030: b8b9 60be ecba aabe dc16 103f 5d19 e0be
00000040: 3714 9fbe f55f d4be fdc4 1ebe 9962 ebbe
00000050: 0cae 953e f289 a2be ae30 b2be 01fb e8be
00000060: 7b06 283f 1307 9a3e 973f 043f 614e 673e
00000070: 8920 003f 2611 d3be d274 dabe 6511 debe
00000080: 82b9 babe cae6 dcbe abf4 c9be e100 b63e
00000090: 4e01 633f 31a7 0c3f 3425 dcbe adcf 00bf
000000a0: 6046 c7be 0bcf df3e 0740 acbe 10e0 94be
000000b0: 9dbf c9be fdf3 a7be 9f84 8abe 05e4 683c
000000c0: ab19 523d 78c9 37bd fa25 93be 5206 a33c
000000d0: cd11 9ebe 54a6 a93e e618 89be d670 72be
000000e0: 2338 c2be fb85 08bf cf6d e3be db4c e03f
000000f0: 61fd bdbe 981b e43e c18d a7be d332 ed3f
00000100: 4d2d 75be 2f74 ccbe f018 583d 07c1 1cbf
00000110: 4a1a 833e 3b7f da3e 1429 bb3e 9508 b7be
00000120: 01fc b9be 7f43 f9be 0dca debe b734 dd3d
00000130: 9dc8 243d dcf4 1c3f c458 e2be e929 c0be
00000140: 5450 a03e 3c90 cfbe df55 afbe 6904 17be
00000150: 1199 e53e 1295 103f 9db6 95be a849 c4be
00000160: 28f2 273f 1144 aabe d5ab 68be 8915 d2be
00000170: 5d9a a7be 6a7a 03bf 884b c03e 9289 e3be
00000180: 56f1 8a3f 3d09 61be 127c c4be 1a67 13bf
00000190: 8ec6 2d3c 94a0 e1be 147f b13e ba87 7e3f
000001a0: a6b3 8abb f82e 1a3e 522e 63be 4904 9bbe
000001b0: a426 333c c166 a8be 501a 06be f231 c33f
000001c0: 0047 adbe bd0d 553e 2aec 66be 7214 bcbe
000001d0: 6edc a23e dd7d e6be ce17 e43e 9eab ec3e
000001e0: 5374 edbe 250b 883f df4d 8fbe 2e85 abbe
000001f0: c6ad 9dbe f2dd bfbe ec16 3f3f 01ac b53e
00000200: 95b3 433c 4e05 b4be 4931 503e 1c13 003f
00000210: 6709 c3be 27bf 0e3f 4362 55ba b590 c0be
00000220: 1a59 bdbe 289d 2b3f 8037 81be 7511 d23e
00000230: 8aec 02be e402 babe 3368 e93e 5eb5 0bbf
00000240: db2f ecbe db36 f2be c37b 78be ff3a d5be
00000250: 4f9c 773e f88c fcbc 9732 833e bcf7 9fbe
00000260: 1e09 153f 6861 dd3e 5ef9 fc3e 186a 943e
00000270: 4891 d23e b682 bfbe ca67 58be a3b3 cfbe
00000280: fcda abbe f1bb d0be d163 fcbe 0a12 033f
00000290: 44d3 3b3f e2b3 e93e b94b d1be 9848 bfbe
000002a0: 9eeb a7be 9f2a f23e 3189 babe 4834 96be
000002b0: 43fc adbe 0dbf d3be 70bf d8be 5621 0bbd
000002c0: e376 713d dc41 373a 9031 a93c f201 463d
000002d0: 9359 afbe 615f d0bd 0817 b9bd d4ff 83be
000002e0: 5fe8 c1be 8617 47bf 0162 d6be ddf6 ab3f
000002f0: 30e3 7fbe 7c77 b13e 4251 d2be 5f13 2c3f
00000300: fbaf 6dbe 21d6 a3be 4054 343d 35d6 8cbe
00000310: e0b6 fa3e fae4 133f 6297 4f3e c57d 09bf
00000320: 5f7d 6dbe 31ed c3be 24b3 a7be 59a6 c93e
00000330: 5720 8fbd 0d1d 2e3f 5907 c1be 1a10 e0be
00000340: 5d6d 923e e994 d4be f054 a4be e7e0 eebd
00000350: 60e7 d03e 9093 1f3f 64a0 d5be 08e1 a1be
00000360: 68b0 f53e 8b27 63be 186c 39be 5d88 bbbe
00000370: cb78 d6be f7de dcbe 4402 063f 16e3 f0be
00000380: bd30 543e 234a dfbe ccf3 cabe 49fa b5be
00000390: 6af5 19bf 60ab bbbe 0571 503e 1f8b 753f
000003a0: 3d7a 743d 503f 623e 5355 54be b3ba c9be
000003b0: 1f02 ecbc dc2c 10bf 68de c0bd a3e9 873f
000003c0: f4e8 c1be 684f f43d 8082 6abe f271 f2be
000003d0: 7199 b03e 020c e8be 864e eb3e 6696 e73e
000003e0: bd31 edbe fc2d 803e 4192 44be 3e99 963c
000003f0: 4899 5cbe 0ca2 f1be ee1a 3d3f 3cf5 0f3f

layer3.bias f4 [4]
0.15884031 0.01586714 0.09698433 0.0719997
00000000: 09a7 223e cefb 813c b89f c63d 9474 933d
